…
[36m(_WandbLoggingActor pid=16756)[39m     mkdir(name, mode)
[36m(_WandbLoggingActor pid=16756)[39m FileNotFoundError: [WinError 206] The filename or extension is too long: 'C:\\Users\\dika_atma\\ray_results\\_tune_2023-08-16_11-34-25\\_tune_30004_00000_0_box=0.1329,cls=0.8248,copy_paste=0.5743,degrees=11.9462,fliplr=0.2092,flipud=0.8606,hsv_h=0.0075,hsv_s=0.8684,_2023-08-16_11-34-30\\wandb\\run-20230816_113436-30004_00000\\logs'
[36m(_tune pid=7356)
[36m(_tune pid=7356)[39m                    from  n    params  module                                       arguments
[36m(_tune pid=7356)[39m   0                  -1  1       464  ultralytics.nn.modules.conv.Conv             [3, 16, 3, 2]
[36m(_tune pid=7356)[39m   1                  -1  1      4672  ultralytics.nn.modules.conv.Conv             [16, 32, 3, 2]
[36m(_tune pid=7356)[39m   2                  -1  1      7360  ultralytics.nn.modules.block.C2f             [32, 32, 1, True]
[36m(_tune pid=7356)[39m   3                  -1  1     18560  ultralytics.nn.modules.conv.Conv             [32, 64, 3, 2]
[36m(_tune pid=7356)[39m   4                  -1  2     49664  ultralytics.nn.modules.block.C2f             [64, 64, 2, True]
[36m(_tune pid=7356)[39m   5                  -1  1     73984  ultralytics.nn.modules.conv.Conv             [64, 128, 3, 2]
[36m(_tune pid=7356)[39m   6                  -1  2    197632  ultralytics.nn.modules.block.C2f             [128, 128, 2, True]
[36m(_tune pid=7356)[39m   7                  -1  1    295424  ultralytics.nn.modules.conv.Conv             [128, 256, 3, 2]
[36m(_tune pid=7356)[39m   8                  -1  1    460288  ultralytics.nn.modules.block.C2f             [256, 256, 1, True]
[36m(_tune pid=7356)[39m   9                  -1  1    164608  ultralytics.nn.modules.block.SPPF            [256, 256, 5]
[36m(_tune pid=7356)[39m  10                  -1  1         0  torch.nn.modules.upsampling.Upsample         [None, 2, 'nearest']
[36m(_tune pid=7356)[39m  11             [-1, 6]  1         0  ultralytics.nn.modules.conv.Concat           [1]
[36m(_tune pid=7356)[39m  12                  -1  1    148224  ultralytics.nn.modules.block.C2f             [384, 128, 1]
[36m(_tune pid=7356)[39m  13                  -1  1         0  torch.nn.modules.upsampling.Upsample         [None, 2, 'nearest']
[36m(_tune pid=7356)[39m  14             [-1, 4]  1         0  ultralytics.nn.modules.conv.Concat           [1]
[36m(_tune pid=7356)[39m  15                  -1  1     37248  ultralytics.nn.modules.block.C2f             [192, 64, 1]
[36m(_tune pid=7356)[39m  16                  -1  1     36992  ultralytics.nn.modules.conv.Conv             [64, 64, 3, 2]
[36m(_tune pid=7356)[39m  17            [-1, 12]  1         0  ultralytics.nn.modules.conv.Concat           [1]
[36m(_tune pid=7356)[39m  18                  -1  1    123648  ultralytics.nn.modules.block.C2f             [192, 128, 1]
[36m(_tune pid=7356)[39m  19                  -1  1    147712  ultralytics.nn.modules.conv.Conv             [128, 128, 3, 2]
[36m(_tune pid=7356)[39m  20             [-1, 9]  1         0  ultralytics.nn.modules.conv.Concat           [1]
[36m(_tune pid=7356)[39m  21                  -1  1    493056  ultralytics.nn.modules.block.C2f             [384, 256, 1]
[36m(_tune pid=7356)[39m  22        [15, 18, 21]  1    751507  ultralytics.nn.modules.head.Detect           [1, [64, 128, 256]]
[36m(_tune pid=7356)[39m YOLOv8n summary: 225 layers, 3011043 parameters, 3011027 gradients, 8.2 GFLOPs
[36m(_tune pid=7356)
[36m(_tune pid=7356)[39m Transferred 355/355 items from pretrained weights
[36m(_tune pid=7356)[39m wandb: Currently logged in as: atmanegara-andika. Use `wandb login --relogin` to force relogin
[36m(_tune pid=7356)[39m Traceback (most recent call last):
…
